…
Average actions of items: 15.895665370387935
The number of inters: 167588
The sparsity of the dataset: 99.91589057620325%
Remain Fields: ['user_id', 'item_id', 'timestamp']
Sun 23 Nov 2025 12:51:19 INFO  [Training]: train_batch_size = [2048] train_neg_sample_args: [{'distribution': 'none', 'sample_num': 'none', 'alpha': 'none', 'dynamic': False, 'candidate_num': 0}]
Sun 23 Nov 2025 12:51:19 INFO  [Evaluation]: eval_batch_size = [4096] eval_args: [{'split': {'LS': 'valid_and_test'}, 'order': 'TO', 'group_by': 'user', 'mode': {'valid': 'full', 'test': 'full'}}]
Sun 23 Nov 2025 12:51:19 INFO  RecBLR(
  (item_embedding): Embedding(10544, 64, padding_idx=0)
  (layer_norm): LayerNorm((64,), eps=1e-12, elementwise_affine=True)
  (dropout): Dropout(p=0.2, inplace=False)
  (recurrent_layers): ModuleList(
    (0-1): 2 x RecurrentLayer(
      (behavior_modeling): GatedRecurrentLayer(
        (input): Linear(in_features=64, out_features=256, bias=False)
        (conv1d): Conv1d(128, 128, kernel_size=(4,), stride=(1,), padding=(3,), groups=128)
        (gates): Linear(in_features=128, out_features=256, bias=True)
        (output): Linear(in_features=128, out_features=64, bias=False)
      )
      (dropout): Dropout(p=0.2, inplace=False)
      (layer_norm): LayerNorm((64,), eps=1e-12, elementwise_affine=True)
      (ffn): FeedForward(
        (w_1): Linear(in_features=64, out_features=256, bias=True)
        (w_2): Linear(in_features=256, out_features=64, bias=True)
        (dropout): Dropout(p=0.2, inplace=False)
        (layer_norm): LayerNorm((64,), eps=1e-12, elementwise_affine=True)
      )
    )
  )
  (loss_fct): CrossEntropyLoss()
)
Trainable parameters: 858368
Sun 23 Nov 2025 12:51:19 INFO  FLOPs: 40120896.0
Sun 23 Nov 2025 12:51:20 INFO  ================================================================================
Sun 23 Nov 2025 12:51:20 INFO  Training phase
Sun 23 Nov 2025 12:51:20 INFO  ================================================================================
…
